Regression Model.pth (torch, 543627 bytes, 7 tensors)

layers_stacked.0.weight f4 [256, 11]
0.034725297 0.046463512 0.08377147 0.10965034 -0.25177097 0.085921675 -0.2525374 0.24850355
0.024504311 -0.17096572 0.099523306 -0.10795676 0.12444092 0.045374528 0.27666974 -0.22870956
-0.17321926 0.23843984 0.14228171 0.2512808 -0.2621742 -0.21518238 -0.07386998 0.07097149
0.2955073 -0.16597392 0.18438452 0.17229089 0.28766724 -0.04203191 -0.123384975 0.11955564
0.10561607 0.17534553 0.07418145 -0.09295631 0.18844049 0.18090425 0.09966023 -0.028832436
0.17409845 0.08027305 -0.09948304 0.09492651 0.09650265 0.206184 -0.19920966 -0.30768225
-0.09053833 0.09421352 0.30049306 0.058105998 0.2790921 0.0009745741 0.24455062 -0.14880803
0.18813942 0.18948488 -0.045238715 -0.067397095 0.17104363 0.24959768 0.15801631 -0.035983887
0.31458208 0.18236887 -0.28291276 -0.014975078 -0.120697126 -0.13590291 -0.14178967 0.19431901
0.16239567 -0.2601907 -0.03142141 0.06785968 0.07940019 0.22795312 0.12949373 0.23344186
0.22826187 -0.045526993 -0.28912792 -0.0021168543 -0.28719097 0.01946246 -0.1801722 -0.0021518182
-0.1294222 -0.21240611 -0.14869744 0.10712041 -0.22651367 0.26639485 0.13014658 -0.2711922
-0.09319186 0.25678298 -0.24012712 -0.05271857 -0.07610425 0.239304 -0.03613449 -0.033703875
0.11642957 0.1491337 -0.251193 0.012045219 0.13027862 -0.12995969 0.14102606 0.050350726
-0.039839555 -0.37795806 -0.09680642 -0.32720414 0.307272 -0.13024612 -0.22871614 -0.15879895
-0.2779598 -0.085676216 0.21355824 -0.05491164 -0.0069385283 0.16675712 0.14984219 0.11928228
-0.2428629 0.25865787 -0.22041163 0.2517376 -0.31385288 -0.059703182 0.27400872 -0.14706707
-0.023456676 0.08027655 -0.1258846 0.08521084 -0.08962993 0.05431534 0.03115062 0.19708699
-0.15177986 0.09585129 -0.26337075 0.22507228 0.20493294 0.2177895 -0.12781583 -0.040628243
-0.08274616 0.08879568 0.21868892 -0.0948402 -0.1697307 0.21910183 -0.28401682 -0.026861148
0.09219401 -0.16051596 0.23675051 -0.12805353 -0.2547599 0.3493809 0.04120422 -0.018297747
0.13803351 0.13803075 -0.022604441 -0.0077467356 -0.032540314 0.14603585 0.110240385 0.17161831
0.1102295 0.11594588 0.27292052 -0.15430005 0.089983664 -0.11211133 -0.032410853 0.06929063
-0.010135678 0.022735668 -0.060650844 0.14342566 0.060018267 0.17591308 -0.05769527 0.2076589
-0.061711848 0.10947786 0.02968104 -0.04636825 -0.101766475 -0.16958047 0.093415715 0.18661201
0.2540913 -0.27489987 -0.064023614 -0.2860505 -0.19618851 -0.010448107 -0.12777345 0.1538293
-0.009719811 0.2397099 -0.19998345 -0.21917735 -0.17354566 0.14712957 0.19703339 0.18343864
0.25131682 0.16665518 -0.069633245 0.15969038 0.27078766 0.004692301 -0.16473919 0.0065563647
-0.12993266 -0.30106717 0.008138201 -0.12974244 0.17355771 -0.25756073 0.25869364 -0.036097497
0.26908973 0.23094095 -0.0011566037 0.18018955 -0.21253304 -0.24108468 0.24708095 0.15100272
0.062474977 -0.032302458 -0.15326661 0.21570845 -0.15225731 -0.25853664 -0.24616587 -0.54344577
-0.0148880035 -0.1628823 -0.08984844 -0.030201571 -0.074892 0.22179401 -0.0984838 0.122449666
00000000: 1d3c 0e3d 8650 3e3d 6090 ab3d 5c90 e03d
00000010: 20e8 80be b4f7 af3d 954c 81be b777 7e3e
00000020: 44bd c83c a311 2fbe e0d2 cb3d 6f18 ddbd
00000030: e2da fe3d a4da 393d a8a7 8d3e d732 6abe
00000040: 6460 31be 9329 743e 4cb2 113e e1a7 803e
00000050: b23b 86be c558 5cbe 2549 97bd 8059 913d
00000060: bc4c 973e 11f5 29be 4ccf 3c3e 066d 303e
00000070: 1f49 933e a729 2cbd 43b1 fcbd 96d9 f43d
00000080: 3d4d d83d c78d 333e 72ec 973d e15f bebd
00000090: 8bf6 403e f73e 393e aa1a cc3d 0032 ecbc
000000a0: dd46 323e 3266 a43d c4bd cbbd d468 c23d
000000b0: 2ea3 c53d e621 533e 9efd 4bbe 8788 9dbe
000000c0: 296c b9bd 05f3 c03d 3ada 993e 8e00 6e3d
000000d0: 29e5 8e3e 907a 7f3a 7a6b 7a3e 2261 18be
000000e0: 9fa7 403e 5308 423e 3b4c 39bd 7d07 8abd
000000f0: 1026 2f3e 8996 7f3e 07cf 213e d763 13bd
00000100: e710 a13e e8be 3a3e f1d9 90be 085a 75bc
00000110: 0e30 f7bd 222a 0bbe 5031 11be 90fb 463e
00000120: 0d4b 263e b737 85be bdb3 00bd 04fa 8a3d
00000130: 919c a23d 8b6c 693e 019a 043e 620b 6f3e
00000140: 7bbd 693e 837a 3abd 9308 94be ecba 0abb
00000150: b20a 93be bd6f 9f3c 107f 38be 8505 0dbb
00000160: 4187 04be fd80 59be 2444 18be f261 db3d
00000170: 33f3 67be e864 883e 2545 053e b4d9 8abe
00000180: 60db bebd 0f79 833e e2e3 75be 6def 57bd
00000190: 8cdc 9bbd 1c0c 753e c201 14bd 130d 0abd
000001a0: a072 ee3d 81b6 183e 5e9c 80be 4f59 453c
000001b0: c267 053e 2714 05be 2369 103e 903c 4e3d
000001c0: cd2e 23bd b883 c1be 7242 c6bd 4d87 a7be
000001d0: c152 9d3e 3d5f 05be 9034 6abe 319c 22be
000001e0: bf50 8ebe 0377 afbd 03af 5a3e 07eb 60bd
000001f0: 985c e3bb 61c2 2a3e 3b70 193e 454a f43d
00000200: 0db1 78be ce6e 843e 96b3 61be c0e3 803e
00000210: 53b1 a0be 538b 74bd df4a 8c3e c098 16be
00000220: 3728 c0bc 0868 a43d e5e7 00be 0583 ae3d
00000230: e68f b7bd c379 5e3d 962f ff3c 2cd1 493e
00000240: 2e6c 1bbe ae4d c43d 88d8 86be 5979 663e
00000250: f1d9 513e 3604 5f3e 27e2 02be cd69 26bd
00000260: d276 a9bd 82da b53d fdef 5f3e 943b c2bd
00000270: e2cd 2dbe 3b5c 603e a76a 91be e90b dcbc
00000280: 37d0 bc3d 4c5e 24be ba6e 723e 7720 03be
00000290: e46f 82be 0ee2 b23e c2c5 283d 28e5 95bc
000002a0: a858 0d3e ef57 0d3e f32c b9bc 54d8 fdbb
000002b0: fe48 05bd 6c8a 153e b6c5 e13d b6bc 2f3e
000002c0: 01c0 e13d 0975 ed3d 3dbc 8b3e d500 1ebe
000002d0: 5b49 b83d a09a e5bd 3ec1 04bd 3fe8 8d3d
000002e0: 1d10 26bc 2740 ba3c 056d 78bd 2dde 123e
000002f0: b7d5 753d 8f22 343e e051 6cbd 89a4 543e
00000300: 90c5 7cbd ee35 e03d a725 f33c a2ec 3dbd
00000310: f16a d0bd 81a6 2dbe bd50 bf3d 3817 3f3e
00000320: 4118 823e adbf 8cbe d01e 83bd 3675 92be
00000330: a4e5 48be 892e 2bbc 0bd7 02be 6e85 1d3e
00000340: d83f 1fbc 8376 753e 76c8 4cbe 0770 60be
00000350: f4b5 31be 22a9 163e 1fc3 493e 57d7 3b3e
00000360: 99ac 803e a8a7 2a3e e09b 8ebd e085 233e
00000370: aea4 8a3e e0c1 993b 64b1 28be c6d6 d63b
00000380: 110d 05be 7a25 9abe 1756 053c 34db 04be
00000390: 1db9 313e 00df 83be 7e73 843e f8da 13bd
000003a0: 21c6 893e c97b 6c3e 2e99 97ba 9c83 383e
000003b0: 43a2 59be e7de 76be ca02 7d3e 75a0 1a3e
000003c0: c3e5 7f3d 954f 04bd ecf1 1cbe ade2 5c3e
000003d0: 57e9 1bbe ea5e 84be e812 7cbe 431f 0bbf
000003e0: d0ec 73bc 9eca 26be 7502 b8bd 4969 f7bc
000003f0: fa60 99bd f81d 633e e0b1 c9bd e4c6 fa3d

layers_stacked.0.bias f4 [256]
0.12105806 0.21404378 -0.030210674 0.3405511 -0.026246082 -0.07042875 0.29617703 -0.31559974
-0.3849317 0.27358335 -0.16000527 -0.31847653 0.27043366 -0.40592214 0.21994464 -0.015354301
0.39844167 -0.10556771 -0.12601042 0.047087274 0.37686974 0.306611 -0.34194696 0.21571672
0.22887038 0.35658407 0.050672874 -0.24084057 0.14767715 -0.25573766 0.3234576 -0.28538173
0.36639586 -0.0014612229 0.14788793 -0.28716528 -0.16627726 0.12768221 0.2734415 -0.23874207
-0.21699457 -0.15273337 -0.18233901 0.34890622 0.18701322 -0.26795867 -0.19862771 -0.101863295
-0.05765192 0.06635482 0.053703338 -0.19972174 0.13612986 0.43139628 -0.05763287 0.25461587
0.0885938 -0.1523108 -0.3219457 0.22490074 -0.20110255 0.4307802 0.14224647 0.4009995
-0.11563576 -0.1020439 0.009274874 -0.23243499 0.3820804 0.3301281 0.25139555 0.20591755
0.3187563 -0.11007941 -0.15342604 -0.32388896 0.12007209 0.37571153 -0.1775046 -0.27910173
-0.07667748 0.26606882 0.17199764 0.11549695 -0.14334546 0.078503706 -0.11638993 0.09559573
0.10380844 0.20987454 -0.090850174 0.2549741 -0.17696007 -0.15370204 -0.023413299 -0.2558445
0.09847083 0.04272351 0.22375622 0.090502314 0.21166089 -0.17565992 0.08518606 0.1281478
0.20813948 -0.46154633 0.026304899 -0.08633631 -0.20306228 -0.11670991 0.3087992 -0.036661386
0.21496952 0.13512766 0.021363648 0.30021894 -0.14125717 -0.12025964 0.18795872 0.25202027
0.25232497 -0.106676735 0.17538907 0.23831937 0.49126607 -0.22713281 -0.11115772 -0.022713266
0.18122123 0.124447964 0.0185766 -0.24166241 -0.29562533 0.34916952 0.010452568 0.06250461
-0.12441838 -0.24128109 -0.10136104 -0.15374264 -0.0006448235 -0.22921026 -0.07105416 -0.2572098
-0.10781166 0.2150208 -0.02866342 -0.09056307 -0.12750712 0.23416683 -0.017201928 -0.40365872
-0.14627865 -0.0710186 -0.04285776 -0.042836964 -0.031480137 0.014203942 -0.29914907 0.08879247
0.16692792 0.20409201 0.27644515 -0.06405229 -0.34813634 0.25459513 -0.12330773 0.39024076
-0.10525358 0.35143667 -0.26729524 -0.28760925 0.21541022 -0.07699913 -0.22938183 0.37551674
-0.14788388 0.04337648 -0.3598631 0.3877398 -0.22351658 -0.626033 -0.3697988 0.1571921
-0.27297524 0.14520061 0.110025674 -0.10836442 0.23360321 0.021869509 0.18545748 -0.26912895
-0.002266478 -0.14846143 -0.22977066 -0.23599112 -0.1919088 -0.05545319 0.23794326 0.28183973
0.10852846 0.2691051 -0.24655282 -0.1797816 0.01570705 -0.29945529 -0.07006492 -0.06357802
0.46269277 0.108790495 -0.07973247 0.012392658 -0.11008356 0.19390565 -0.26746473 0.08301099
-0.15864277 0.40637714 0.14872794 0.18135959 0.021036018 0.050970443 -0.1335931 0.003712414
0.058892135 0.07304056 -0.21142544 0.39049593 0.1543545 -0.07746933 -0.1304192 0.11575684
-0.15288346 -0.19347359 0.34131512 0.24474217 -0.28394213 -0.3158565 -0.19856706 -0.001319601
-0.3328326 0.31983918 0.017787237 0.07151842 -0.031482738 0.11315179 0.3093004 0.00039882952
-0.078370035 -0.1575936 -0.32855442 -0.26719683 -0.08885786 0.3228547 -0.0049856966 0.26543885
00000000: 4aed f73d 4b2e 5b3e 607c f7bc b75c ae3e
00000010: 0602 d7bc f33c 90bd 84a4 973e 4a96 a1be
00000020: c515 c5be 1e13 8c3e 6cd8 23be 5b0f a3be
00000030: 4876 8a3e 07d5 cfbe 2b39 613e 9b90 7bbc
00000040: 8c00 cc3e e233 d8bd e008 01be 96de 403d
00000050: 12f5 c03e 1efc 9c3e ac13 afbe d8e4 5c3e
00000060: ff5c 6a3e 3092 b63e 5c8e 4f3d e99e 76be
00000070: ae38 173e 0cf0 82be 3c9c a53e 8e1d 92be
00000080: 3d98 bb3e 8186 bfba ef6f 173e 5407 93be
00000090: 9644 2abe 20bf 023e 8600 8c3e cd78 74be
000000a0: d333 5ebe 2366 1cbe 14b7 3abe d6a3 b23e
000000b0: 6580 3f3e e131 89be 1065 4bbe b49d d0bd
000000c0: 6b24 6cbd 09e5 873d 08f8 5b3d db83 4cbe
000000d0: a065 0b3e f9df dc3e 7210 6cbd 035d 823e
000000e0: ab70 b53d 5df7 1bbe 11d6 a4be 614c 663e
000000f0: d4ed 4dbe 398f dc3e 0fa9 113e ce4f cd3e
00000100: 71d2 ecbd 64fc d0bd a4f5 173c 7003 6ebe
00000110: 0ba0 c33e 8d06 a93e ebb6 803e 0ddc 523e
00000120: 0734 a33e 5071 e1bd b71b 1dbe c6d4 a5be
00000130: 5be8 f53d 435d c03e c4c3 35be 6ce6 8ebe
00000140: 1509 9dbd 2c3a 883e 2620 303e aa89 ec3d
00000150: 27c9 12be 8dc6 a03d d85d eebd b2c7 c33d
00000160: 8599 d43d 5ae9 563e a80f babd f78b 823e
00000170: 0535 35be 1164 1dbe 3fcd bfbc 0dfe 82be
00000180: 13ab c93d d9fe 2e3d 5a20 653e 4759 b93d
00000190: a2bd 583e 32e0 33be 0776 ae3d 2d39 033e
000001a0: 8422 553e cd4f ecbe 5f7d d73c 17d1 b0bd
000001b0: 8fef 4fbe 9b05 efbd ee1a 9e3e 402a 16bd
000001c0: f820 5c3e e85e 0a3e d102 af3c 4cb6 993e
000001d0: b8a5 10be b04a f6bd 4078 403e cd08 813e
000001e0: bd30 813e 5579 dabd 3199 333e fe09 743e
000001f0: 3a87 fb3e 8195 68be a9a6 e3bd 2c11 babc
00000200: 0f92 393e 93de fe3d f42d 983c 5a76 77be
00000210: 345c 97be 59c6 b23e 3f41 2b3c 6b02 803d
00000220: 10cf febd 6412 77be 6096 cfbd b66e 1dbe
00000230: 5f09 29ba 18b6 6abe d884 91bd 01b1 83be
00000240: 5ccc dcbd 6a2e 5c3e 8ccf eabc 2179 b9bd
00000250: 3a91 02be 6ec9 6f3e 0feb 8cbc 5bac cebe
00000260: 12ca 15be 3372 91bd 9e8b 2fbd d075 2fbd
00000270: 51f1 00bd a7b7 683c 112a 99be d4d8 b53d
00000280: 27ef 2a3e 7ffd 503e 388a 8d3e d92d 83bd
00000290: ed3e b2be 4b5a 823e c388 fcbd a3cd c73e
000002a0: 308f d7bd 82ef b33e ecda 88be 8541 93be
000002b0: 7f94 5c3e b8b1 9dbd 12e3 6abe bb43 c03e
000002c0: df6e 17be 89ab 313d fa3f b8be d585 c63e
000002d0: 88e1 64be b343 20bf 4556 bdbe f7f6 203e
000002e0: 69c3 8bbe 78af 143e 2455 e13d 2aee ddbd
000002f0: ae35 6f3e af27 b33c 91e8 3d3e 45cb 89be
00000300: 3189 14bb 4606 18be 0049 6bbe a8a7 71be
00000310: be83 44be e222 63bd 66a7 733e 4c4d 903e
00000320: 2b44 de3d 25c8 893e 5878 7cbe ab18 38be
00000330: 12ac 803c 3452 99be 327e 8fbd 3135 82bd
00000340: 11e6 ec3e 8dcd de3d c74a a3bd 930a 4b3c
00000350: 7d73 e1bd 348f 463e 23f1 88be aa01 aa3d
00000360: 4073 22be aa10 d03e 234c 183e 54b6 393e
00000370: ba53 ac3c 62c6 503d a1cc 08be f94b 733b
00000380: e138 713d 4a96 953d e97f 58be 15ef c73e
00000390: 1b0f 1e3e 3da8 9ebd 9c8c 05be ec11 ed3d
000003a0: 7b8d 1cbe f11d 46be dbc0 ae3e b19d 7a3e
000003b0: dd60 91be f1b7 a1be 2a55 4bbe 76f6 acba
000003c0: 0969 aabe f6c1 a33e 8ab6 913c 4078 923d
000003d0: 0bf4 00bd 20bc e73d 9f5c 9e3e fe19 d139
000003e0: 7880 a0bd 3760 21be 4938 a8be 06ce 88be
000003f0: 1cfb b5bd 364d a53e 0e5f a3bb 9ae7 873e

layers_stacked.2.weight f4 [256, 256]
-0.106356226 -0.09209257 -0.03304431 -0.07312553 -0.046709154 -0.037040893 0.013014449 -0.0028205367
-0.0772773 -0.052115347 -0.03215508 -0.12838587 -0.0051763817 -0.083868265 -0.13152875 -0.11988071
0.0050899237 -0.078249164 -0.04286975 -0.10822329 -0.13290945 -0.04807655 -0.06467309 -0.059412554
-0.13057487 -0.0031631521 -0.05238648 -0.12144893 -0.14352648 -0.105708264 -0.02301434 -0.00051345833
-0.06671639 -0.05450703 -0.07241598 -0.036629774 -0.06505227 -0.081940286 -0.042219967 -0.07640445
-0.033133052 -0.06884503 -0.029427635 -0.08264214 -0.08937978 -0.0081961285 -0.06949983 -0.07563497
-0.0824024 -0.07624132 -0.14318341 -0.09496181 -0.0028935159 -0.050099824 -0.04493328 -0.0631738
-0.07357551 -0.08523959 -0.041121315 -0.075590365 -0.06966719 -0.064911105 -0.08709918 -0.02203686
-0.08706697 -0.037108205 -0.056813374 -0.11763121 -0.019054197 -0.11542829 -0.09252011 -0.020445107
-0.0279319 -0.047252376 -0.07272964 -0.037557658 -0.008221731 -0.10571825 -0.14031973 -0.14780512
-0.09653323 -0.050582692 -0.03627262 -0.035694808 -0.13001187 -0.096606664 -0.03354432 -0.061862007
-0.0772398 -0.051174197 -0.02415772 -0.10812791 -0.075518325 -0.008066286 -0.051822595 -0.042528477
-0.08235618 -0.048999455 -0.12822464 -0.036252536 -0.053416423 -0.07823164 -0.065199226 -0.046891633
-0.050442293 -0.07318039 -0.016930563 -0.0757057 -0.027365938 -0.021241523 -0.06795848 -0.1204212
-0.11100329 -0.029588498 -0.035274863 -0.026828472 -0.067296125 -0.11953145 -0.046150293 -0.103179075
-0.08062369 -0.04244248 -0.036769573 -0.07691708 -0.034649026 -0.07081552 -0.08009371 -0.022722982
-0.12639043 -0.0074751102 -0.09380856 -0.033071615 -0.042585008 -0.022703892 -0.117212 -0.016141653
-0.07117968 -0.07556713 -0.05036667 -0.028432073 0.0019792845 -0.056516677 -0.13862617 -0.074102834
-0.1180102 -0.09830455 -0.054066848 -0.09619966 -0.10130281 -0.047419433 -0.099156074 -0.06523864
-0.12443693 -0.08888839 -0.040603608 -0.08363106 -0.077442855 -0.053957105 -0.03424537 -0.13550466
-0.029330386 -0.068583906 0.007794004 -0.07196624 -0.085033804 -0.06576296 -0.10812563 -0.075046696
-0.100452624 -0.07861365 -0.04337577 -0.11979434 -0.122853234 -0.15610905 -0.0041121515 -0.11824683
-0.08299299 -0.0729845 -0.03650055 -0.102452114 -0.027870672 -0.06832736 -0.1015015 -0.10431682
-0.01341614 -0.073359184 -0.09520353 -0.103662275 -0.016901515 -0.117327094 -0.14981951 -0.08540863
-0.070999704 -0.10984165 -0.014023547 -0.07467145 -0.09892161 -0.086582184 -0.051661093 -0.13400263
-0.11413167 -0.09565267 -0.04418859 -0.06016579 -0.056324624 -0.06609996 -0.10739554 -0.0044797696
-0.017143765 -0.12217147 -0.025062252 -0.020484036 -0.043634266 -0.11035445 -0.028585251 -0.1213415
-0.047031008 -0.09123678 -0.078065835 -0.10506519 0.0016717839 -0.111923985 -0.0814272 -0.033275794
-0.06840202 -0.097667746 -0.11012309 -0.1181858 -0.0370042 -0.13462256 -0.10072092 -0.08213385
-0.045894884 -0.022281539 0.0053139986 -0.06918718 -0.06634512 -0.01356068 -0.08014011 -0.034870975
-0.0826053 -0.052149475 -0.022794588 -0.07605148 -0.0146757625 -0.029689588 -0.03803983 -0.10121483
-0.13547093 -0.14202498 -0.030906502 -0.06934359 -0.031121058 -0.055204615 -0.07087943 -0.07396519
00000000: 4bd1 d9bd 089b bcbd 7859 07bd d6c2 95bd
00000010: 1952 3fbd 31b8 17bd 8e3a 553c c1d8 38bb
00000020: 9043 9ebd e776 55bd 0cb5 03bd 9677 03be
00000030: a39e a9bb 20c3 abbd 79af 06be 0584 f5bd
00000040: 60c9 a63b 1941 a0bd 3198 2fbd 2ca4 ddbd
00000050: 6a19 08be ebeb 44bd 5373 84bd 945a 73bd
00000060: 6bb5 05be e34c 4fbb 3593 56bd 37ba f8bd
00000070: 9bf8 12be 937d d8bd 9288 bcbc 9b99 06ba
00000080: 9aa2 88bd c342 5fbd d44e 94bd 1a09 16bd
00000090: 203a 85bd 4fd0 a7bd d8ee 2cbd f079 9cbd
000000a0: 86b6 07bd a0fe 8cbd 3912 f1bc 4840 a9bd
000000b0: bf0c b7bd 0e49 06bc ed55 8ebd 82e6 9abd
000000c0: 97c2 a8bd 6924 9cbd ac9e 12be 567b c2bd
000000d0: 24a1 3dbb 7935 4dbd f60b 38bd 4461 81bd
000000e0: c2ae 96bd 1892 aebd d36e 28bd 1fcf 9abd
000000f0: acad 8ebd 1df0 84bd 0e61 b2bd a586 b4bc
00000100: 2b50 b2bd c6fe 17bd 24b5 68bd a2e8 f0bd
00000110: 8c17 9cbc ab65 ecbd 2f7b bdbd 7f7c a7bc
00000120: 71d1 e4bc b58b 41bd 47f3 94bd 0fd6 19bd
00000130: 70b4 06bc cf82 d8bd faaf 0fbe 3a5a 17be
00000140: 37b3 c5bd cc2f 4fbd 9992 14bd b834 12bd
00000150: d521 05be b7d9 c5bd c565 09bd 0463 7dbd
00000160: e62f 9ebd 099c 51bd 69e6 c5bc 2a72 ddbd
00000170: 5aa9 9abd 7528 04bc ee43 54bd 5732 2ebd
00000180: 5baa a8bd a7b3 48bd 524d 03be 8a7d 14bd
00000190: 2ecb 5abd e937 a0bd 2c87 85bd 7111 40bd
000001a0: 949c 4ebd 9adf 95bd f7b1 8abc 970b 9bbd
000001b0: 882e e0bc b402 aebc d12d 8bbd 649f f6bd
000001c0: b155 e3bd 9463 f2bc 607c 10bd 62c7 dbbc
000001d0: 8dd2 89bd e8cc f4bd 1708 3dbd 8d4f d3bd
000001e0: 081e a5bd 2ad8 2dbd b19b 16bd b486 9dbd
000001f0: 23ec 0dbd ba07 91bd 2c08 a4bd 8c25 babc
00000200: 7e6c 01be c5f1 f4bb b41e c0bd 1a76 07bd
00000210: 9e6d 2ebd 83fd b9bc d80c f0bd 803b 84bc
00000220: a7c6 91bd f1c2 9abd 484d 4ebd 61ea e8bc
00000230: e2b6 013b 087e 67bd 05f4 0dbe 3ac3 97bd
00000240: 55af f1bd e553 c9bd 3375 5dbd 5404 c5bd
00000250: d977 cfbd e13a 42bd 5712 cbbd d69b 85bd
00000260: cad8 febd 1e0b b6bd f84f 26bd c346 abbd
00000270: 5c9a 9ebd 2002 5dbd e044 0cbd bcc1 0abe
00000280: 4746 f0bc b875 8cbd d864 ff3b 0963 93bd
00000290: 3426 aebd bbae 86bd f870 ddbd 15b2 99bd
000002a0: 1bba cdbd 3100 a1bd cbaa 31bd bc56 f5bd
000002b0: 7a9a fbbd 0ddb 1fbe 3abf 86bb 652b f2bd
000002c0: 3bf8 a9bd e678 95bd 9a81 15bd 6ad2 d1bd
000002d0: 0951 e4bc 37ef 8bbd 05e0 cfbd 0fa4 d5bd
000002e0: 5fcf 5bbc 573d 96bd 11fa c2bd e34c d4bd
000002f0: 0c75 8abc 3049 f0bd 496a 19be b8ea aebd
00000300: 4b68 91bd a9f4 e0bd 05c3 65bc 58ed 98bd
00000310: 6a97 cabd 0052 b1bd 959a 53bd fc37 09be
00000320: ddbd e9bd 8ce5 c3bd 18ff 34bd 6770 76bd
00000330: a6b4 66bd 6a5f 87bd 31f2 dbbd 08cb 92bb
00000340: 1571 8cbc 0935 fabd 5a4f cdbc 23ce a7bc
00000350: d8b9 32bd 8401 e2bd 9e2b eabc e481 f8bd
00000360: 96a3 40bd 59da babd fbe0 9fbd 6b2c d7bd
00000370: c21f db3a 6738 e5bd 4ec3 a6bd 334c 08bd
00000380: 5c16 8cbd 0706 c8bd 3788 e1bd 660b f2bd
00000390: b791 17bd 7fda 09be c546 cebd cb35 a8bd
000003a0: 46fc 3bbd c687 b6bc 0d21 ae3b 02b2 8dbd
000003b0: f3df 87bd 9d2d 5ebc 7f20 a4bd ded4 0ebd
000003c0: f82c a9bd b09a 55bd b7bb babc e1c0 9bbd
000003d0: 9c72 70bc 9437 f3bc a7cf 1bbd b949 cfbd
000003e0: e4b8 0abe ff6e 11be a22f fdbc 0304 8ebd
000003f0: 97f1 febc 3c1e 62bd 3c29 91bd 107b 97bd

layers_stacked.2.bias f4 [256]
-0.080965616 0.068769 -0.008427242 -0.068099044 -0.1139562 -0.08788364 -0.081673086 0.031876948
0.04712314 0.16001692 0.104593955 0.12020869 -0.06234804 -0.06803986 0.08135649 0.024281673
0.08626349 0.11194796 -0.009736665 -0.041866086 -0.04744124 0.09991812 0.11329021 0.079661615
0.024274185 -0.0870738 -0.026047649 -0.028161692 -0.112131506 -0.06868641 0.006076428 -0.012195272
0.04908382 0.006781171 0.07154738 0.12213082 0.014700743 0.04492961 -0.10366582 -0.0004602332
-0.067480855 -0.06538841 -0.09185395 -0.10987661 0.06116099 -0.10410693 0.030351812 -0.007517919
-0.041858967 0.13847415 0.10390838 -0.05543047 -0.10633181 -0.054142404 -0.011628119 -0.11694931
-0.10682488 -0.10895755 -0.11204962 -0.041529525 -0.034029733 -0.010083179 -0.03298765 -0.11879582
0.08136523 -0.0044994224 -0.008381097 0.103156134 0.14598367 0.0599144 -0.06482293 -0.06583397
0.075047284 -0.014975076 0.0059244903 -0.018742552 -0.012095637 0.015011078 -0.086299315 -0.018542252
-0.07101778 0.1190143 -0.09565504 0.07987714 0.067751095 -0.09316322 0.040677268 0.109095335
-0.03038297 -0.0247015 0.098840356 -0.06873018 0.12145159 0.035463322 -0.07540723 -0.11434541
-0.07879879 -0.033894 0.04955918 0.10143856 -0.03726837 -0.026422571 -0.08947028 -0.104519434
-0.04383522 -0.054180734 -0.11302699 -0.044277105 -0.10581482 -0.039078224 -0.096254 0.11627897
-0.030264655 -0.011108793 0.12586243 0.10772575 0.05372462 -0.09583665 -0.040278424 -0.1052261
0.018440787 0.10184338 0.08783843 -0.06024656 0.017180208 -0.012816384 -0.060989335 -0.06893106
0.034825694 -0.056332517 -0.058262225 0.043244436 0.081780024 -0.11812232 0.013704571 -0.10484061
-0.018378299 0.08630139 0.14282285 0.14846973 0.10213547 0.061155144 -0.09126298 0.06164452
0.051858537 0.033683434 0.12582128 -0.0026581902 -0.07678156 -0.046468016 -0.07460867 -0.11703194
0.12944649 -0.060563087 -0.03003695 0.068317376 -0.078253254 0.11569623 -0.028343627 0.057336498
0.06698476 0.12639225 0.057496067 -0.041070014 0.15181379 -0.06168565 0.12468236 0.054177817
-0.023440948 0.044705607 -0.11536808 0.041901056 -0.001192194 0.038755473 0.08526622 0.016852744
-0.052771535 -0.07571058 0.14097713 0.06885944 -0.07912252 0.10994148 0.03186691 -0.09313453
-0.05793516 0.10903882 -0.03415258 -0.016411714 0.08339559 -0.12504561 0.018573614 0.0014671044
0.12001585 0.012124834 0.039828055 0.06292108 0.0060485443 0.1269317 -0.08279921 -0.063189976
-0.01186838 -0.12930097 -0.036998387 0.00041902513 0.01994651 0.13106206 0.01852041 -0.05737086
0.0866413 -0.027538233 -0.0067607956 -0.047183283 -0.03974377 -0.10164285 0.07058999 -0.09698463
0.12707216 0.0064244512 0.07062412 0.06926888 -0.07248409 0.027764058 -0.0984179 0.023142979
-0.02738847 0.06853149 -0.02561927 -0.103112765 -0.1135267 -0.12205663 -0.0882146 -0.08808521
-0.06384374 -0.11124957 0.105727956 0.16423894 -0.075414725 0.11691376 -0.115983665 -0.069956824
0.06557607 0.019977897 0.13182586 0.03627453 -0.039075527 0.011504036 -0.017018659 -0.06315029
0.045538664 -0.014459857 0.01206242 -0.074187264 -0.10451572 0.12720917 -0.09764845 0.08723281
00000000: 4dd1 a5bd c3d6 8c3d 6a12 0abc 8377 8bbd
00000010: de61 e9bd 56fc b3bd 3844 a7bd 6791 023d
00000020: 3204 413d 7adb 233e 5b35 d63d f92f f63d
00000030: a960 7fbd 7b58 8bbd 3b9e a63d 5cea c63c
00000040: eaaa b03d f944 e53d 8886 1fbc c67b 2bbd
00000050: bf51 42bd dfa1 cc3d b304 e83d a125 a33d
00000060: a8da c63c c053 b2bd e161 d5bc 59b3 e6bc
00000070: 34a5 e5bd 76ab 8cbd c61c c73b aece 47bc
00000080: 1e0c 493d 9634 de3b 6f87 923d b91f fa3d
00000090: 63db 703c 1c08 383d bf4e d4bd 744b f1b9
000000a0: 6733 8abd 5cea 85bd ec1d bcbd fd06 e1bd
000000b0: f283 7a3d 0436 d5bd 5da4 f83c e058 f6bb
000000c0: 4f74 2bbd 2bcc 0d3e ebcd d43d 0f0b 63bd
000000d0: 7ec4 d9bd 6dc4 5dbd de83 3ebc 1f83 efbd
000000e0: 01c7 dabd 2325 dfbd 457a e5bd dd1a 2abd
000000f0: c362 0bbd eb33 25bc 0f1e 07bd 394b f3bd
00000100: d0a2 a63d e46f 93bb de50 09bc 8643 d33d
00000110: be7c 153e cd68 753d e2c1 84bd f6d3 86bd
00000120: 64b2 993d 055a 75bc 3a22 c23b fb89 99bc
00000130: c72c 46bc 06f1 753c b2bd b0bd ece5 97bc
00000140: c571 91bd c5bd f33d cae6 c3bd a096 a33d
00000150: 16c1 8a3d 5ccc bebd 359d 263d 606d df3d
00000160: b5e5 f8bc cd5a cabc d06c ca3d 69c2 8cbd
00000170: 9cbb f83d fd41 113d 1b6f 9abd ed2d eabd
00000180: 4361 a1bd 6fd4 0abd 91fe 4a3d 05bf cf3d
00000190: b8a6 18bd 2674 d8bc 323c b7bd 490e d6bd
000001a0: 8f8c 33bd 9eec 5dbd b27a e7bd e95b 35bd
000001b0: 71b5 d8bd 7d10 20bd d120 c5bd ab23 ee3d
000001c0: 95ed f7bc a801 36bc 15e2 003e 519f dc3d
000001d0: 590e 5c3d 0146 c4bd fdfa 24bd c880 d7bd
000001e0: 2211 973c 4393 d03d a3e4 b33d 19c5 76bd
000001f0: 82bd 8c3c d0fb 51bc f4cf 79bd ba2b 8dbd
00000200: 63a5 0e3d edbc 66bd 5fa4 6ebd 1421 313d
00000210: 497c a73d 1dea f1bd 2389 603c acb6 d6bd
00000220: 168e 96bc c8be b03d 2740 123e 7308 183e
00000230: 672c d13d d17d 7a3d 16e8 babd f77e 7c3d
00000240: 9e69 543d a4f7 093d 4bd7 003e 0835 2ebb
00000250: a73f 9dbd 3f55 3ebd 6ecc 98bd 71ae efbd
00000260: 9f8d 043e 0011 78bd 0d10 f6bc fbe9 8b3d
00000270: 3e43 a0bd 25f2 ec3d e530 e8bc add9 6a3d
00000280: 4e2f 893d f86c 013e ff80 6b3d 0839 28bd
00000290: 1375 1b3e 18aa 7cbd 7759 ff3d 8fe9 5d3d
000002a0: 3b07 c0bc 3a1d 373d 1a46 ecbd 71a0 2b3d
000002b0: 6443 9cba 0fbe 1e3d 0ea0 ae3d c40e 8a3c
000002c0: f726 58bd 260e 9bbd 4f5c 103e 2e06 8d3d
000002d0: fd0a a2bd 0029 e13d e186 023d 51bd bebd
000002e0: 6b4d 6dbd bf4f df3d 93e3 0bbd dc71 86bc
000002f0: 4fcb aa3d f50b 00be b127 983c db4b c03a
00000300: dfca f53d 3da7 463c be22 233d c4dc 803d
00000310: de32 c63b 62fa 013e a292 a9bd bf69 81bd
00000320: 9873 42bc 7967 04be 9f8b 17bd 9ab0 db39
00000330: dd66 a33c 2235 063e 1db8 973c b5fd 6abd
00000340: fe70 b13d dc97 e1bc aa89 ddbb 4243 41bd
00000350: 5dca 22bd 202a d0bd 7c91 903d e19f c6bd
00000360: 341f 023e 3484 d23b 61a3 903d d8dc 8d3d
00000370: 8a72 94bd 7371 e33c 538f c9bd 5896 bd3c
00000380: c95d e0bc 3d5a 8c3d 81df d1bc c92c d3bd
00000390: b080 e8bd d4f8 f9bd dba9 b4bd 0566 b4bd
000003a0: 82c0 82bd d1d6 e3bd e687 d83d 412e 283e
000003b0: 0973 9abd 7b70 ef3d d888 edbd 8645 8fbd
000003c0: bf4c 863d b0a8 a33c 5cfd 063e 9a94 143d
000003d0: a90d 20bd 6d7b 3c3c b76a 8bbc f054 81bd
000003e0: c086 3a3d 09e9 6cbc 75a1 453c 7eef 97bd
000003f0: 560c d6bd 1f43 023e e9fb c7bd 1ea7 b23d

layers_stacked.4.weight f4 [256, 256]
0.044048537 0.04631298 -0.06769544 -0.048808843 0.036483362 0.04633361 -0.015855897 0.019281793
0.010283727 0.009815849 0.001301573 -0.037081786 0.048866194 -0.020327859 -0.037310246 0.041694574
-0.005534469 0.0042635095 0.12078861 -0.07980291 0.029770916 0.049199313 -0.047869716 -0.011184119
0.060856495 0.015073386 0.11836267 0.032931376 0.11789742 0.06934218 -0.010823049 0.05306001
-0.07366432 0.024180062 0.054852027 0.00025772827 -0.047199357 0.016791278 0.07859333 0.052815944
0.061019927 0.010461316 0.018899577 0.038333315 -0.04320752 0.059247177 -0.02807888 0.04445973
0.014081249 0.037462115 0.03882077 -0.08952402 0.07979815 0.026048113 -0.07756502 -0.01454774
0.044676296 0.04611043 0.036649454 0.043925148 0.0090191895 0.041920137 0.057422817 0.0799505
0.05413301 0.07615794 0.037632838 0.009754782 0.009729746 0.057766344 0.009971218 0.007854067
0.00030838847 0.10366231 -0.01502823 0.04178153 -0.036436517 0.02901965 0.1213994 -0.045742348
-0.03370119 0.04927025 6.928859e-05 0.018864071 0.032944273 0.09909598 0.0042741685 0.08234804
0.025044924 -0.002316266 0.06667057 0.08022972 0.028397651 0.03601813 0.12015225 0.08656291
0.0019455532 -0.0311675 -0.045198552 0.054476153 -0.0017764238 0.0056000855 0.06762382 0.04013389
0.050406322 0.010699905 0.10841745 0.009279898 0.037360717 0.013828735 -0.05891808 -0.026045829
0.08354341 0.08652936 0.078712724 0.05863981 0.013446804 0.040185623 -0.029440742 0.10649822
-0.050605293 0.05749367 0.0120265465 0.04356519 0.04844953 0.07461028 0.01385809 0.054873478
-0.045124024 0.025566122 -0.00401495 -0.01580983 0.0730293 -0.0014912286 -0.008518013 0.028554572
0.08337196 0.05879769 0.03848558 0.0784806 -0.012895185 -0.047737017 0.059757747 -0.0223798
-0.0059061507 0.0076298537 0.0838788 -0.04687536 -0.07962546 0.01633805 0.07573072 0.052699283
0.078105204 0.089214966 0.014150532 0.057641625 0.049585342 0.0030403151 0.008877339 0.0028838532
0.013794173 0.08220854 -0.030569559 0.07117923 -0.032415394 0.120686464 0.016844029 -0.022259433
0.030371424 0.04626104 0.11365162 -0.012282421 0.07546923 -0.080365226 0.0051230327 -0.001410372
0.02272172 0.10241945 -0.01706645 -0.048534203 0.0077781337 0.02901312 -0.04585281 0.02276814
0.12076326 -0.045180187 0.05919237 0.003676989 0.019680506 0.0011946808 -0.0060543763 0.044114027
0.0051957243 0.0013581081 0.0044901846 0.010701882 0.016705269 0.021722557 0.035771564 -0.009666315
-0.060950484 0.059423614 -0.04982174 0.085646085 -0.047737394 -0.0076005682 0.057710182 -0.006045411
-0.0050146137 0.01761818 0.023780666 0.0027903055 -0.031245671 0.06556518 -0.003787483 0.003167048
0.030412598 -0.017423354 0.06215163 0.07324129 0.11889881 0.00024015426 0.04300414 -0.03586755
0.020591233 0.072441354 0.057760976 -0.024322074 0.12069396 0.0069602877 0.008438535 0.109414965
0.056305256 0.078504376 -0.05129123 -0.010066115 0.077295475 0.0020701466 -0.0020612036 0.04504943
0.050799914 0.03310409 0.033937685 0.058610737 0.017285991 -0.05298557 0.033653457 0.029174622
-0.019296462 0.013847438 0.01661223 0.05363754 0.04419457 0.044154223 0.048071735 0.009412227
00000000: 3d6c 343d aeb2 3d3d e8a3 8abd c8eb 47bd
00000010: 946f 153d 50c8 3d3d 3ae4 81bc daf4 9d3c
00000020: 147d 283c a8d2 203c 8b99 aa3a 12e3 17bd
00000030: eb27 483d 9c86 a6bc a1d2 18bd eec7 2a3d
00000040: 7e5a b5bb e9b4 8b3b 0560 f73d b56f a3bd
00000050: 23e2 f33c 3885 493d 0913 44bd 983d 37bc
00000060: a944 793d 5df6 763c 2168 f23d 0de3 063d
00000070: 3474 f13d 4603 8e3d 2853 31bc 7455 593d
00000080: 52dd 96bd 4415 c63c 85ac 603d b41f 8739
00000090: 1d54 41bd dd8d 893c 8af5 a03d 8855 583d
000000a0: 08f0 793d f165 2b3c 49d3 9a3c 6503 1d3d
000000b0: 5efa 30bd 2bad 723d ae05 e6bc 681b 363d
000000c0: 0ab5 663c e071 193d 8702 1f3d 5f58 b7bd
000000d0: 366d a33d da62 d53c 69da 9ebd a559 6ebc
000000e0: 7efe 363d 4ade 3c3d bd1d 163d dbea 333d
000000f0: 39c5 133c 73b4 2b3d 3034 6b3d 16bd a33d
00000100: 93ba 5d3d b2f8 9b3d e424 1a3d 85d2 1f3c
00000110: 8369 1f3c 679c 6c3d 525e 233c 58ae 003c
00000120: 33af a139 e84c d43d f738 76bc 1c23 2b3d
00000130: 753e 15bd 9eba ed3c 40a0 f83d 545c 3bbd
00000140: 420a 0abd 9acf 493d 074f 9138 d388 9a3c
00000150: 93f0 063d d5f2 ca3d 530e 8c3b 17a6 a83d
00000160: 032b cd3c 7fcc 17bb 948a 883d 7b4f a43d
00000170: 31a2 e83c bf87 133d 6212 f63d e547 b13d
00000180: ef01 ff3a fc52 ffbc 1e22 39bd 6322 5f3d
00000190: e4d6 e8ba ec80 b73b 5b7e 8a3d 6f63 243d
000001a0: dc76 4e3d a84e 2f3c f809 de3d b70a 183c
000001b0: 8d07 193d eb91 623c 1654 71bd 105e d5bc
000001c0: cf18 ab3d 4e36 b13d 2334 a13d 4c30 703d
000001d0: fc4f 5c3c ae99 243d b62d f1bc bd1b da3d
000001e0: 7f47 4fbd 7c7e 6b3d fe0a 453c 6a71 323d
000001f0: 0473 463d 46cd 983d 0b0d 633c 03c3 603d
00000200: f8d3 38bd 0b70 d13c d78f 83bb 9e83 81bc
00000210: 6390 953d 5475 c3ba 238f 0bbc 47eb e93c
00000220: ebbe aa3d d9d5 703d 0ea3 1d3d 70ba a03d
00000230: 5346 53bc e487 43bd 8ac4 743d d855 b7bc
00000240: 6288 c1bb da03 fa3b a6c8 ab3d 6100 40bd
00000250: ac12 a3bd 60d7 853c b518 9b3d 34db 573d
00000260: 9ff5 9f3d 56b6 b63d a2d7 673c a019 6c3d
00000270: 001a 4b3d 0640 473b 4272 113c 07ff 3c3b
00000280: f400 623c f35c a83d 036d fabc 6bc6 913d
00000290: 01c6 04bd 772a f73d 7dfc 893c 6a59 b6bc
000002a0: 7ecd f83c 377c 3d3d 2ec2 e83d 353c 49bc
000002b0: 9d8f 9a3d 8696 a4bd 1ddf a73b 3bdc b8ba
000002c0: e722 ba3c 4ac1 d13d f1ce 8bbc cdcb 46bd
000002d0: b7df fe3b ecac ed3c 28d0 3bbd 4084 ba3c
000002e0: ba52 f73d dc0e 39bd b373 723d a4f9 703b
000002f0: 0339 a13c d696 9c3a ca63 c6bb e9b0 343d
00000300: e540 aa3b 8c02 b23a 6622 933b f256 2f3c
00000310: 7dd9 883c 81f3 b13c 3485 123d 775f 1ebc
00000320: 37a7 79bd 2d66 733d e111 4cbd 3767 af3d
00000330: 4988 43bd 300e f9bb 8361 6c3d 9518 c6bb
00000340: a151 a4bb 0054 903c accf c23c 8fdd 363b
00000350: ecf6 ffbc 0947 863d 6c37 78bb 408e 4f3b
00000360: d723 f93c 6cbb 8ebc b592 7e3d 88ff 953d
00000370: 3881 f33d ebd1 7b39 1c25 303d dae9 12bd
00000380: f2ae a83c 225c 943d c696 6c3d 163f c7bc
00000390: 652e f73d 2013 e43b c841 0a3c f414 e03d
000003a0: 57a0 663d e7c6 a03d c116 52bd 59ec 24bc
000003b0: 174d 9e3d 4cab 073b 4215 07bb c085 383d
000003c0: 9213 503d 2798 073d 3e02 0b3d d011 703d
000003d0: 5a9b 8d3c 6607 59bd 35d8 093d 9eff ee3c
000003e0: 9d13 9ebc 5de0 623c 5f16 883c 0ab3 5b3d
000003f0: 5e05 353d 0fdb 343d dee6 443d be35 1a3c

layers_stacked.4.bias f4 [256]
0.14309776 -0.053422425 0.17388114 -0.08559687 0.105177365 0.053570695 -0.0615496 0.13152243
0.09903198 0.054537944 0.11760736 -0.010657895 -0.08792633 0.043885168 0.0258509 0.14311516
0.11374733 0.10403161 -0.042889457 -0.089067906 0.17192394 -0.047217816 0.10862466 0.096032135
-0.008763442 -0.11904745 -0.06967413 0.15991002 -0.08193272 0.04805285 -0.101676084 -0.03301427
0.0018055565 -0.120079525 -0.028557025 0.0605325 0.12340292 0.10674093 0.14529473 0.13295597
0.054520365 -0.12762089 0.101576366 -0.09938598 -0.027307961 -0.098492384 -0.1034806 0.16098467
-0.094126865 0.12262224 0.08773309 0.1343135 0.11285904 0.06104132 -0.021248695 -0.012489429
0.0903197 0.12058285 -0.09313045 0.083447844 -0.017202122 -0.06172171 0.16128692 -0.053530272
-0.014058902 -0.020705191 0.00031548773 0.117394246 0.17560649 -0.05184083 0.09576474 -0.06477997
0.07709055 -0.060180582 -0.097732745 0.17526594 -0.028019533 -0.06279532 -0.022218104 -0.046222374
-0.12184811 -0.10042583 0.1718068 -0.08035458 0.11153371 -0.0051708454 0.10649347 -0.11879656
0.14558555 -0.08803867 -0.04029262 0.093009524 -0.03467258 -0.048069112 -0.07679104 -0.029432552
-0.111230865 0.07428701 0.013991893 0.05696667 -0.10526744 -0.11421142 -0.004599824 -0.013443013
0.08095639 0.09487207 -0.024450261 0.16662847 -0.013691613 -0.09228064 -0.0759783 -0.00619674
0.05238123 0.080994725 -0.05147294 -0.049882434 -0.07598992 0.14914066 -0.036232937 0.13223504
-0.0155254975 -0.09663744 -0.10925827 -0.06495556 -0.03274674 -0.031771254 -0.053481646 0.085053004
-0.026174963 0.15926634 -0.0867773 0.15194082 -0.01712834 -0.03615487 0.14167176 0.074002594
-0.051044546 0.01861252 -0.11531639 0.17902157 -0.007814135 0.13535899 -0.12116021 -0.09620084
0.14994702 -0.10865323 0.13836457 -0.026741954 0.13154225 -0.08838422 -0.05786181 0.08581408
-0.073092744 -0.02636037 -0.029406816 0.07712622 -0.07754132 0.058696784 0.16098371 0.009805634
0.13245516 0.16568877 0.108558 0.11861192 -0.07860607 -0.07772776 0.14185876 0.17739707
-0.11925961 0.16100991 0.098676525 0.13280785 -0.053687852 -0.061074827 -0.10706405 -0.0090080425
-0.119848974 -0.0895826 0.1583382 0.15941928 -0.059669264 0.06343299 0.07673595 0.13284568
0.15779741 0.08731237 -0.091527596 0.07644455 0.093680665 0.07823315 0.14299573 0.05878782
0.14770417 0.047693856 -0.0070317658 0.12722692 -0.049413178 -0.038506906 0.13361101 -0.10439366
-0.021234278 0.042527083 0.11446523 -0.06524018 -0.014285625 0.021729961 0.15358977 0.095999815
0.1053359 -0.08943326 -0.00060211844 -0.103676476 0.039453454 0.14465079 -0.06754518 0.06518075
-0.0638243 -0.053387724 0.1529081 0.06757054 0.021267846 -0.004841354 -0.05661468 0.10858584
-0.050497346 -0.03911385 0.1288165 -0.08615276 0.0926336 -0.04095757 0.0369231 0.13393214
0.09847818 -0.039064094 0.17973703 0.099301234 0.107693106 0.06576054 0.095411904 -0.09842875
0.05533682 0.1729537 0.14654411 -0.03460266 -0.0459754 -0.05362244 0.1311639 0.17044622
0.08988277 -0.055267863 0.051222485 -0.0077082664 0.030855283 0.15338843 -0.071600325 -0.121414565
00000000: 3888 123e 79d1 5abd e60d 323e 694d afbd
00000010: 3b67 d73d f26c 5b3d 6f1b 7cbd d1ad 063e
00000020: 47d1 ca3d 2e63 5f3d 21dc f03d 749e 2ebc
00000030: b812 b4bd efc0 333d 44c5 d33c c88c 123e
00000040: 5cf4 e83d 860e d53d dbac 2fbd 3c69 b6bd
00000050: d40c 303e 7867 41bd 9b76 de3d 7fac c43d
00000060: 8a94 0fbc 26cf f3bd 4fb1 8ebd 74bf 233e
00000070: 58cc a7bd 11d3 443d 8d3b d0bd f939 07bd
00000080: 6ca8 ec3a 41ec f5bd 6cf0 e9bc edf0 773d
00000090: acba fc3d fd9a da3d 24c8 143e 9c25 083e
000000a0: bf50 5f3d 0daf 02be 4507 d03d e08a cbbd
000000b0: f2b4 dfbc 60b6 c9bd a3ed d3bd 2ad9 243e
000000c0: 96c5 c0bd 5e21 fb3d 68ad b33d 7a89 093e
000000d0: a422 e73d 7706 7a3d be11 aebc 76a0 4cbc
000000e0: 89f9 b83d 24f4 f63d 2dbb bebd b4e6 aa3d
000000f0: 77eb 8cbc e7cf 7cbd 6628 253e 8f42 5bbd
00000100: 4f57 66bc ef9d a9bc 0c68 a539 656c f03d
00000110: 30d2 333e 0d57 54bd 4e20 c43d 5cab 84bd
00000120: a6e1 9d3d ea7f 76bd 1b28 c8bd ea78 333e
00000130: 3889 e5bc d59a 80bd be02 b6bc ac53 3dbd
00000140: 808b f9bd 0fac cdbd 1fee 2f3e f190 a4bd
00000150: c96b e43d 3270 a9bb 4019 da3d 9c4b f3bd
00000160: 6114 153e 9e4d b4bd e009 25bd c77b be3d
00000170: d604 0ebd 1ee4 44bd 9f44 9dbd 891c f1bc
00000180: 02cd e3bd ca23 983d 413e 653c e255 693d
00000190: 7596 d7bd ade7 e9bd 1fba 96bb 1540 5cbc
000001a0: 77cc a53d 4a4c c23d ea4b c8bc a7a0 2a3e
000001b0: ca52 60bc a2fd bcbd 839a 9bbd 060e cbbb
000001c0: b38d 563d 90e0 a53d 4ad5 52bd 8651 4cbd
000001d0: 9aa0 9bbd 54b8 183e fd68 14bd 9f68 073e
000001e0: a85e 7ebc dae9 c5bd cdc2 dfbd 6c07 85bd
000001f0: 7221 06bd 9322 02bd 920f 5bbd 4530 ae3d
00000200: e06c d6bc b716 233e 4cb8 b1bd 6096 1b3e
00000210: bc50 8cbc 2117 14bd 6712 113e ac8e 973d
00000220: 1614 51bd 4979 983c 002b ecbd 6e51 373e
00000230: dc06 00bc 8c9b 0a3e d822 f8bd f204 c5bd
00000240: b68b 193e 9685 debd 71af 0d3e f111 dbbc
00000250: 03b3 063e c902 b5bd 8100 6dbd 4bbf af3d
00000260: a6b1 95bd b4f1 d7bc 90e6 f0bc 5af4 9d3d
00000270: fccd 9ebd 0a6c 703d ead8 243e cfa7 203c
00000280: 53a2 073e 51aa 293e a853 de3d ceea f23d
00000290: 38fc a0bd bb2f 9fbd 6c43 113e 94a7 353e
000002a0: 623e f4bd c8df 243e eb16 ca3d c8fe 073e
000002b0: cbe7 5bbd 9929 7abd 6644 dbbd 7896 13bc
000002c0: 6173 f5bd 1577 b7bd 6923 223e cf3e 233e
000002d0: c267 74bd 28e9 813d bd27 9d3d b308 083e
000002e0: a595 213e d4d0 b23d d272 bbbd f68e 9c3d
000002f0: a6db bf3d b438 a03d 796d 123e 7fcb 703d
00000300: c33f 173e a25a 433d ba6a e6bb c647 023e
00000310: 7965 4abd 6bb9 1dbd 53d1 083e 58cc d5bd
00000320: 82f3 adbc e130 2e3d bf6c ea3d a59c 85bd
00000330: 410e 6abc 0803 b23c a346 1d3e 8d9b c43d
00000340: 59ba d73d c928 b7bd 7cd7 1dba 5554 d4bd
00000350: f299 213d 561f 143e 2155 8abd 7c7d 853d
00000360: 51b6 82bd 16ad 5abd f193 1c3e 6c62 8a3d
00000370: e839 ae3c 39a4 9ebb cbe4 67bd 4162 de3d
00000380: 4ed6 4ebd d835 20bd 79e8 033e dc70 b0bd
00000390: afb6 bd3d 20c3 27bd ad3c 173d 8225 093e
000003a0: eeae c93d ac01 20bd fc0c 383e 725e cb3d
000003b0: 348e dc3d 76ad 863d 5167 c33d 0395 c9bd
000003c0: dda8 623d c61a 313e a90f 163e 85bb 0dbd
000003d0: b350 3cbd 34a3 5bbd d44f 063e 7489 2e3e
000003e0: 7514 b83d 8e60 62bd abce 513d a095 fcbb
000003f0: 38c4 fc3c db11 1d3e 31a3 92bd 33a8 f8bd

layers_stacked.6.weight f4 [1, 256]
0.04298375 -0.0007308105 0.06530731 0.054290324 0.024747364 0.01701922 0.0522243 0.044367958
0.058364917 -0.00935825 0.05984757 -0.00872555 0.040569346 0.008407126 0.016310567 0.016706053
0.043639738 0.014308506 0.02133654 0.053662844 0.0506512 0.0048463363 0.040619366 0.03455026
0.006650641 0.016277865 0.04555978 0.049163513 0.0044415165 0.021199739 0.05673931 0.051464222
0.052710302 0.026692739 0.015074175 0.02689013 0.061680064 0.0107565485 0.021471506 0.011403236
0.012925357 -0.023548713 0.06451742 0.017854493 0.031017045 0.0086042825 0.041433483 0.023560114
0.024803149 0.02348551 0.037456162 0.04160171 0.009480845 0.03390539 0.046575412 0.03436799
0.033641484 0.04910457 0.058688562 0.0135761835 0.033481143 0.03111775 0.030061074 0.0073228236
0.033103563 0.040510148 0.050088707 0.020122694 0.041854825 0.0397495 0.016815374 -0.0495224
0.0056439564 0.0056829243 0.011885994 0.03642331 0.045094848 -0.02498519 0.027419258 0.008404832
0.029334603 0.029656233 0.045059834 0.053384017 0.009732079 0.018786201 0.045149367 0.04723406
0.04744826 0.0061338064 -0.011944957 0.03142265 0.059029683 0.054754034 0.0017517513 0.007888809
0.014356119 0.025058206 0.0037437866 0.05282772 0.024911327 0.01635934 0.030123029 0.017017918
0.040533926 0.018605487 0.015855514 0.046996616 0.056285195 0.0071118525 -0.0008047077 0.017915698
0.027895471 0.021792091 0.04433874 0.032910116 0.058713574 0.067360535 -0.019285586 0.026130097
-0.014585121 -0.0040727537 0.03381222 0.029942594 0.026480762 -0.0010910482 0.043290384 0.041083544
0.029390045 0.07185929 0.0009681608 0.049949706 0.02029585 0.056042742 0.032903176 0.033223383
0.028675586 7.6925586e-05 0.03015238 0.047084287 0.01198146 0.0097821485 0.056602333 0.020802995
0.015979419 0.025545195 0.018335469 0.022398513 0.026269337 0.025178762 0.008795979 0.036175653
0.016595898 0.017193377 0.05892227 -0.004476884 0.03610489 0.0320819 0.04977684 -0.0077080815
0.040926114 0.053916026 0.010289254 0.011398766 0.027940467 0.00018088365 0.013302253 0.03639028
0.0062609906 0.025582878 0.03577922 0.03612453 0.055037968 0.058925424 0.004550465 0.055373408
0.010663883 0.049717527 0.016943054 0.061359566 0.03430617 -0.00986923 0.036017127 0.056278557
0.043353893 0.002380675 0.058571182 0.02893637 0.005953908 0.044309095 0.016531648 0.002750653
0.01989394 0.019539487 -0.0015188581 0.059064396 0.05397217 0.008842445 0.042234797 0.018952891
0.02706265 0.039870165 0.034999255 0.0006799145 0.041996613 0.0007460436 0.035377074 -0.0080829915
0.02486263 0.058718845 0.052725226 0.03660744 -0.012006454 0.024533108 0.03964332 0.030385517
0.03515652 0.02757261 0.06677565 0.027281348 0.0023022157 0.039565787 0.045702808 0.012033616
0.009562326 -0.020352371 0.060623787 0.015325281 0.011481201 0.053781424 0.0040813526 0.053677037
0.056977052 0.050431736 0.051323593 0.047389764 0.025716666 0.04310907 0.0068520415 0.053631276
0.012013008 0.03939243 0.058815606 -0.00024308161 0.056035586 0.03473104 0.06804787 0.033200294
0.008352096 0.03800024 0.019554833 -0.016846009 -0.014259026 0.052532073 0.022457857 0.006889562
00000000: bb0f 303d dd93 3fba d7bf 853d 885f 5e3d
00000010: fcba ca3c e46b 8b3c 26e9 553d 2dbb 353d
00000020: 0d10 6f3d 5853 19bc ba22 753d 9cf5 0ebc
00000030: 0b2c 263d 0bbe 093c bd9d 853c 22db 883c
00000040: 95bf 323d 396e 6a3c f8c9 ae3c 92cd 5b3d
00000050: a277 4f3d 04ce 9e3b 7e60 263d 9384 0d3d
00000060: 9fed d93b 2859 853c e49c 3a3d ae5f 493d
00000070: 248a 913b 13ab ad3c 7b67 683d 26cc 523d
00000080: c2e6 573d bbaa da3c acf9 763c b148 dc3c
00000090: 3ca4 7c3d 3c3c 303c 03e5 af3c a3d4 3a3c
000000a0: e0c4 533c 3be9 c0bc b621 843d 9643 923c
000000b0: 7517 fe3c faf8 0c3c 28b6 293d 2401 c13c
000000c0: f92f cb3c af64 c03c a26b 193d 8e66 2a3d
000000d0: 8c55 1b3c 61e0 0a3d dcc5 3e3d 73c5 0c3d
000000e0: a7cb 093d e021 493d 6b63 703d a46e 5e3c
000000f0: 8623 093d a7ea fe3c a442 f63c 4cf4 ef3b
00000100: 9a97 073d f8ed 253d d129 4d3d 59d8 a43c
00000110: f76f 2b3d 5fd0 223d 65c0 893c 00d8 4abd
00000120: f0f0 b83b d337 ba3b 79bd 423c 9c30 153d
00000130: 60b5 383d bead ccbc 5a9e e03c 6cb4 093c
00000140: 1f4f f03c a1f1 f23c a990 383d 33a9 5a3d
00000150: 4c73 1f3c 85e5 993c 8bee 383d 8078 413d
00000160: 1b59 423d 19fe c83b c8b4 43bc 09b5 003d
00000170: 1cc9 713d c445 603d 059b e53a 1040 013c
00000180: ed35 6b3c de46 cd3c 515a 753b e161 583d
00000190: d712 cc3c 0604 863c 92c4 f63c 2969 8b3c
000001a0: e706 263d 896a 983c 6ce3 813c 867f 403d
000001b0: 4e8b 663d 8b0a e93b 05f3 52ba f1c3 923c
000001c0: 0b85 e43c 5485 b23c 8a9c 353d c2cc 063d
000001d0: a57d 703d 52f4 893d cefc 9dbc c90e d63c
000001e0: 6ef6 6ebc bc74 85bb af7e 0a3d 2c4a f53c
000001f0: 2fee d83c 8101 8fba 4251 313d 3847 283d
00000200: 64c3 f03c f72a 933d 2ccc 7d3a 1098 4c3d
00000210: 7b43 a63c 138d 653d 7bc5 063d 3e15 083d
00000220: 10e9 ea3c 1c53 a138 2002 f73c 74db 403d
00000230: e34d 443c 4e45 203c d9d7 673d 0b6b aa3c
00000240: 45e7 823c 2844 d13c 4434 963c 167d b73c
00000250: cb32 d73c b143 ce3c 031d 103c ec2c 143d
00000260: 1ff4 873c 20d9 8c3c 7a58 713d d3b2 92bb
00000270: b9e2 133d 4f68 033d cde2 4b3d 1394 fcbb
00000280: 24a2 273d 0dd7 5c3d 4294 283c e4c1 3a3c
00000290: 68e3 e43c 96ab 3d39 b1f1 593c f90d 153d
000002a0: ff28 cd3b 2f93 d13c 3b8d 123d 51f7 133d
000002b0: 7e6f 613d c95b 713d 111c 953b 3acf 623d
000002c0: 91b7 2e3c 9ba4 4b3d 29cc 8a3c 2b54 7b3d
000002d0: a084 0c3d 8db2 21bc b286 133d 5884 663d
000002e0: da93 313d 1905 1c3b 56e8 6f3d f70b ed3c
000002f0: 0019 c33b 747d 353d 616d 873c 4d44 343b
00000300: 9ef8 a23c 4611 a03c 6c14 c7ba 82ed 713d
00000310: ec11 5d3d e7df 103c 65fe 2c3d 1843 9b3c
00000320: 7eb2 dd3c e64e 233d 615b 0f3d 4a3c 323a
00000330: a404 2c3d 2392 433a 8de7 103d 866e 04bc
00000340: b7ac cb3c 2c83 703d 68f6 573d aff1 153d
00000350: b8b6 44bc a8f9 c83c 0961 223d 0ceb f83c
00000360: 4800 103d f4df e13c acc1 883d 227d df3c
00000370: c5e0 163b bc0f 223d de32 3b3d a528 453c
00000380: 4dab 1c3c 04ba a6bc a650 783d e316 7b3c
00000390: a61b 3c3c e949 5c3d debc 853b 74dc 5b3d
000003a0: c560 693d 8291 4e3d b038 523d c51b 423d
000003b0: c2ab d23c 2393 303d 1787 e03b 78ac 5b3d
000003c0: 35d2 443c f559 213d a2e8 703d b9e3 7eb9
000003d0: 9285 653d 2342 0e3d af5c 8b3d 08fd 073d
000003e0: 3bd7 083c 24a6 1b3d 7531 a03c a400 8abc
000003f0: b19e 69bc df2b 573d 8af9 b73c d6c1 e13b
